…
ential1 = nn.Sequential( nn.Conv2d(in_channels=3, out_channels=32, kernel_size=5, padding=2), nn.MaxPool2d(2), nn.Conv2d(in_channels=32, out_channels=32, kernel_size=5, padding=2), nn.MaxPool2d(2), nn.Conv2d(in_channels=32, out_channels=64, kernel_size=5, padding=2), nn.MaxPool2d(2), nn.Flatten(), # 将tensor张成一维张量 nn.Linear(1024, 64), nn.Linear(64, 10) ) self.sequential2 = nn.Linear(10,10) self.classfication = nn.Sequential( nn.Linear(10,10), nn.Linear(10,10), nn.Linear(10,10) ) mynn = Mynn() print(mynn) 网络结构为：\n1 2 3 4 5 6 7 8 9 10 11 12 13 14 15 16 17 18 19 Mynn( (sequential1): Sequential( (0): Conv2d(3, 32, kernel_size=(5, 5), stride=(1, 1), padding=(2, 2)) (1): MaxPool2d(kernel_size=2, stride=2, padding=0, dilation=1, ceil_mode=False) (2): Conv2d(32, 32, kernel_size=(5, 5), stride=(1, 1), padding=(2, 2)) (3): MaxPool2d(kernel_size=2, stride=2, padding=0, dilation=1, ceil_mode=False) (4): Conv2d(32, 64, kernel_size=(5, 5), stride=(1, 1), padding=(2, 2)) (5): MaxPool2d(kernel_size=2, stride=2, padding=0, dilation=1, ceil_mode=False) (6): Flatten(start_dim=1, end_dim=-1) (7): Linear(in_features=1024, out_features=64, bias=True) (8): Linear(in_features=64, out_features=10, bias=True) ) (sequential2): Linear(in_features=10, out_features=10, bias=True) (classfication): Sequential( (0): Linear(in_features=10, out_features=10, bias=True) (1): Linear(in_features=10, out_features=10, bias=True) (2): Linear(in_features=10, out_features=10, bias=True) ) ) 添加\r1 2 3 4 5 6 7 8 9 10 11 12 13 14 15 16 17 18 19 20 21 22 23 24 25 mynn.add_module(\u0026#39;add_ReLU\u0026#39;, nn.ReLU() ) print(mynn) \u0026#39;\u0026#39;\u0026#39; Mynn( (sequential1): Sequential( (0): Conv2d(3, 32, kernel_size=(5, 5), stride=(1, 1), padding=(2, 2)) (1): MaxPool2d(kernel_size=2, stride=2, padding=0, dilation=1, ceil_mode=False) (2): Conv2d(32, 32, kernel_size=(5, 5), stride=(1, 1), padding=(2, 2)) (3): MaxPool2d(kernel_size=2, stride=2, padding=0, dilation=1, ceil_mode=False) (4): Conv2d(32, 64, kernel_size=(5, 5), stride=(1, 1), padding=(2, 2)) (5): MaxPool2d(kernel_size=2, stride=2, padding=0, dilation=1, ceil_mode=False) (6): Flatten(start_dim=1, end_dim=-1) (7): Linear(in_features=1024, out_features=64, bias=True) (8): Linear(in_features=64, out_features=10, bias=True) ) (sequential2): Linear(in_features=10, out_features=10, bias=True) (classficatipm): Sequential( (0): Linear(in_features=10, out_features=10, bias=True) (1): Linear(in_features=10, out_features=10, bias=True) (2): Linear(in_features=10, out_features=10, bias=True) ) (add_ReLU): ReLU() ) \u0026#39;\u0026#39;\u0026#39; 修改\r1 2 3 4 5 6 7 8 9 10 11 12 13 14 15 16 17 18 19 20 21 22 23 24 25 mynn.classfication[1] = nn.ReLU() print(mynn) \u0026#39;\u0026#39;\u0026#39; Mynn( (sequential1): Sequential( (0): Conv2d(3, 32, kernel_size=(5, 5), stride=(1, 1), padding=(2, 2)) (1): MaxPool2d(kernel_size=2, stride=2, padding=0, dilation=1, ceil_mode=False) (2): Conv2d(32, 32, kernel_size=(5, 5), stride=(1, 1), padding=(2, 2)) (3): MaxPool2d(kernel_size=2, stride=2, padding=0, dilation=1, ceil_mode=False) (4): Conv2d(32, 64, kernel_size=(5, 5), stride=(1, 1), padding=(2, 2)) (5): MaxPool2d(kernel_size=2, stride=2, padding=0, dilation=1, ceil_mode=False) (6): Flatten(start_dim=1, end_dim=-1) (7): Linear(in_features=1024, out_features=64, bias=True) (8): Linear(in_features=64, out_features=10, bias=True) ) (sequential2): Linear(in_features=10, out_features=10, bias=True) (classfication): Sequential( (0): Linear(in_features=10, out_features=10, bias=True) (1): ReLU() (2): Linear(in_features=10, out_features=10, bias=True) ) (add_ReLU): ReLU() ) \u0026#39;\u0026#39;\u0026#39; 模型的保存与读取\rsave\r1 2 3 4 5 import torch torch.save(model, \u0026#39;new_model.pth\u0026#39;) model = torch.load(\u0026#39;my_model.pth\u0026#39;) 完整保存了模型的结构与参数，数据量大\nstate_dict（官方推荐）\r1 2 3 4 5 6 7 8 import torch model = MyModel() # 需要保证与读取的模型是同一个类 # 以字典形式进行 更加方便 torch.save(model.state_dict(), \u0026#3
…
